…
2023-10-23 14:45:20.245728: I tensorflow/core/common_runtime/gpu/gpu_device.cc:1886] Created device /job:localhost/replica:0/task:0/device:GPU:0 with 22427 MB memory:  -> device: 0, name: NVIDIA GeForce RTX 3090, pci bus id: 0000:01:00.0, compute capability: 8.6
Model: "vgg19"
_________________________________________________________________
 Layer (type)                Output Shape              Param #   
=================================================================
 input (InputLayer)          [(None, 640, 640, 3)]     0         
                                                                 
 block1_conv1 (Conv2D)       (None, 640, 640, 64)      1792      
                                                                 
 block1_conv2 (Conv2D)       (None, 640, 640, 64)      36928     
                                                                 
 block1_pool (MaxPooling2D)  (None, 320, 320, 64)      0         
                                                                 
 block2_conv1 (Conv2D)       (None, 320, 320, 128)     73856     
                                                                 
 block2_conv2 (Conv2D)       (None, 320, 320, 128)     147584    
                                                                 
 block2_pool (MaxPooling2D)  (None, 160, 160, 128)     0         
                                                                 
 block3_conv1 (Conv2D)       (None, 160, 160, 256)     295168    
                                                                 
 block3_conv2 (Conv2D)       (None, 160, 160, 256)     590080    
                                                                 
 block3_conv3 (Conv2D)       (None, 160, 160, 256)     590080    
                                                                 
 block3_conv4 (Conv2D)       (None, 160, 160, 256)     590080    
                                                                 
 block3_pool (MaxPooling2D)  (None, 80, 80, 256)       0         
                                                                 
 block4_conv1 (Conv2D)       (None, 80, 80, 512)       1180160   
                                                                 
 block4_conv2 (Conv2D)       (None, 80, 80, 512)       2359808   
                                                                 
 block4_conv3 (Conv2D)       (None, 80, 80, 512)       2359808   
                                                                 
 block4_conv4 (Conv2D)       (None, 80, 80, 512)       2359808   
                                                                 
 block4_pool (MaxPooling2D)  (None, 40, 40, 512)       0         
                                                                 
 block5_conv1 (Conv2D)       (None, 40, 40, 512)       2359808   
                                                                 
 block5_conv2 (Conv2D)       (None, 40, 40, 512)       2359808   
                                                                 
 block5_conv3 (Conv2D)       (None, 40, 40, 512)       2359808   
                                                                 
 block5_conv4 (Conv2D)       (None, 40, 40, 512)       2359808   
                                                                 
 block5_pool (MaxPooling2D)  (None, 20, 20, 512)       0         
                                                                 
=================================================================
Total params: 20024384 (76.39 MB)
Trainable params: 20024384 (76.39 MB)
Non-trainable params: 0 (0.00 Byte)
_________________________________________________________________
2023-10-23 14:45:21.074540: I tensorflow/tsl/platform/default/subprocess.cc:304] Start cannot spawn child process: No such file or directory
…
